{"format": "torch", "nodes": [{"name": "unet", "id": 140549635600080, "class_name": "EfficientUnet(\n  (encoder): Encoder(\n    (stem_conv): Conv2dSamePadding(3, 48, kernel_size=(3, 3), stride=(2, 2), bias=False)\n    (stem_batch_norm): BatchNorm2d(48, eps=0.001, momentum=0.010000000000000009, affine=True, track_running_stats=True)\n    (stem_swish): Swish()\n    (blocks): ModuleList(\n      (0): MBConvBlock(\n        (swish): Swish()\n        (_depthwise_conv): Conv2dSamePadding(48, 48, kernel_size=(3, 3), stride=[1, 1], groups=48, bias=False)\n        (_bn1): BatchNorm2d(48, eps=0.001, momentum=0.010000000000000009, affine=True, track_running_stats=True)\n        (_se_reduce): Conv2dSamePadding(48, 12, kernel_size=(1, 1), stride=(1, 1))\n        (_se_expand): Conv2dSamePadding(12, 48, kernel_size=(1, 1), stride=(1, 1))\n        (_project_conv): Conv2dSamePadding(48, 24, kernel_size=(1, 1), stride=(1, 1), bias=False)\n        (_bn2): BatchNorm2d(24, eps=0.001, momentum=0.010000000000000009, affine=True, track_running_stats=True)\n      )\n      (1): MBConvBlock(\n        (swish): Swish()\n        (_depthwise_conv): Conv2dSamePadding(24, 24, kernel_size=(3, 3), stride=(1, 1), groups=24, bias=False)\n        (_bn1): BatchNorm2d(24, eps=0.001, momentum=0.010000000000000009, affine=True, track_running_stats=True)\n        (_se_reduce): Conv2dSamePadding(24, 6, kernel_size=(1, 1), stride=(1, 1))\n        (_se_expand): Conv2dSamePadding(6, 24, kernel_size=(1, 1), stride=(1, 1))\n        (_project_conv): Conv2dSamePadding(24, 24, kernel_size=(1, 1), stride=(1, 1), bias=False)\n        (_bn2): BatchNorm2d(24, eps=0.001, momentum=0.010000000000000009, affine=True, track_running_stats=True)\n      )\n      (2): MBConvBlock(\n        (swish): Swish()\n        (_depthwise_conv): Conv2dSamePadding(24, 24, kernel_size=(3, 3), stride=(1, 1), groups=24, bias=False)\n        (_bn1): BatchNorm2d(24, eps=0.001, momentum=0.010000000000000009, affine=True, track_running_stats=True)\n        (_se_reduce): Conv2dSamePadding(24, 6, kernel_size=(1, 1), stride=(1, 1))\n        (_se_expand): Conv2dSamePadding(6, 24, kernel_size=(1, 1), stride=(1, 1))\n        (_project_conv): Conv2dSamePadding(24, 24, kernel_size=(1, 1), stride=(1, 1), bias=False)\n        (_bn2): BatchNorm2d(24, eps=0.001, momentum=0.010000000000000009, affine=True, track_running_stats=True)\n      )\n      (3): MBConvBlock(\n        (swish): Swish()\n        (_expand_conv): Conv2dSamePadding(24, 144, kernel_size=(1, 1), stride=(1, 1), bias=False)\n        (_bn0): BatchNorm2d(144, eps=0.001, momentum=0.010000000000000009, affine=True, track_running_stats=True)\n        (_depthwise_conv): Conv2dSamePadding(144, 144, kernel_size=(3, 3), stride=[2, 2], groups=144, bias=False)\n        (_bn1): BatchNorm2d(144, eps=0.001, momentum=0.010000000000000009, affine=True, track_running_stats=True)\n        (_se_reduce): Conv2dSamePadding(144, 6, kernel_size=(1, 1), stride=(1, 1))\n        (_se_expand): Conv2dSamePadding(6, 144, kernel_size=(1, 1), stride=(1, 1))\n        (_project_conv): Conv2dSamePadding(144, 40, kernel_size=(1, 1), stride=(1, 1), bias=False)\n        (_bn2): BatchNorm2d(40, eps=0.001, momentum=0.010000000000000009, affine=True, track_running_stats=True)\n      )\n      (4): MBConvBlock(\n        (swish): Swish()\n        (_expand_conv): Conv2dSamePadding(40, 240, kernel_size=(1, 1), stride=(1, 1), bias=False)\n        (_bn0): BatchNorm2d(240, eps=0.001, momentum=0.010000000000000009, affine=True, track_running_stats=True)\n        (_depthwise_conv): Conv2dSamePadding(240, 240, kernel_size=(3, 3), stride=(1, 1), groups=240, bias=False)\n        (_bn1): BatchNorm2d(240, eps=0.001, momentum=0.010000000000000009, affine=True, track_running_stats=True)\n        (_se_reduce): Conv2dSamePadding(240, 10, kernel_size=(1, 1), stride=(1, 1))\n        (_se_expand): Conv2dSamePadding(10, 240, kernel_size=(1, 1), stride=(1, 1))\n        (_project_conv): Conv2dSamePadding(240, 40, kernel_size=(1, 1), stride=(1, 1), bias=False)\n        (_bn2): BatchNorm2d(40, eps=0.001, momentum=0.010000000000000009, affine=True, track_running_stats=True)\n      )\n      (5): MBConvBlock(\n        (swish): Swish()\n        (_expand_conv): Conv2dSamePadding(40, 240, kernel_size=(1, 1), stride=(1, 1), bias=False)\n        (_bn0): BatchNorm2d(240, eps=0.001, momentum=0.010000000000000009, affine=True, track_running_stats=True)\n        (_depthwise_conv): Conv2dSamePadding(240, 240, kernel_size=(3, 3), stride=(1, 1), groups=240, bias=False)\n        (_bn1): BatchNorm2d(240, eps=0.001, momentum=0.010000000000000009, affine=True, track_running_stats=True)\n        (_se_reduce): Conv2dSamePadding(240, 10, kernel_size=(1, 1), stride=(1, 1))\n        (_se_expand): Conv2dSamePadding(10, 240, kernel_size=(1, 1), stride=(1, 1))\n        (_project_conv): Conv2dSamePadding(240, 40, kernel_size=(1, 1), stride=(1, 1), bias=False)\n        (_bn2): BatchNorm2d(40, eps=0.001, momentum=0.010000000000000009, affine=True, track_running_stats=True)\n      )\n      (6): MBConvBlock(\n        (swish): Swish()\n        (_expand_conv): Conv2dSamePadding(40, 240, kernel_size=(1, 1), stride=(1, 1), bias=False)\n        (_bn0): BatchNorm2d(240, eps=0.001, momentum=0.010000000000000009, affine=True, track_running_stats=True)\n        (_depthwise_conv): Conv2dSamePadding(240, 240, kernel_size=(3, 3), stride=(1, 1), groups=240, bias=False)\n        (_bn1): BatchNorm2d(240, eps=0.001, momentum=0.010000000000000009, affine=True, track_running_stats=True)\n        (_se_reduce): Conv2dSamePadding(240, 10, kernel_size=(1, 1), stride=(1, 1))\n        (_se_expand): Conv2dSamePadding(10, 240, kernel_size=(1, 1), stride=(1, 1))\n        (_project_conv): Conv2dSamePadding(240, 40, kernel_size=(1, 1), stride=(1, 1), bias=False)\n        (_bn2): BatchNorm2d(40, eps=0.001, momentum=0.010000000000000009, affine=True, track_running_stats=True)\n      )\n      (7): MBConvBlock(\n        (swish): Swish()\n        (_expand_conv): Conv2dSamePadding(40, 240, kernel_size=(1, 1), stride=(1, 1), bias=False)\n        (_bn0): BatchNorm2d(240, eps=0.001, momentum=0.010000000000000009, affine=True, track_running_stats=True)\n        (_depthwise_conv): Conv2dSamePadding(240, 240, kernel_size=(3, 3), stride=(1, 1), groups=240, bias=False)\n        (_bn1): BatchNorm2d(240, eps=0.001, momentum=0.010000000000000009, affine=True, track_running_stats=True)\n        (_se_reduce): Conv2dSamePadding(240, 10, kernel_size=(1, 1), stride=(1, 1))\n        (_se_expand): Conv2dSamePadding(10, 240, kernel_size=(1, 1), stride=(1, 1))\n        (_project_conv): Conv2dSamePadding(240, 40, kernel_size=(1, 1), stride=(1, 1), bias=False)\n        (_bn2): BatchNorm2d(40, eps=0.001, momentum=0.010000000000000009, affine=True, track_running_stats=True)\n      )\n      (8): MBConvBlock(\n        (swish): Swish()\n        (_expand_conv): Conv2dSamePadding(40, 240, kernel_size=(1, 1), stride=(1, 1), bias=False)\n        (_bn0): BatchNorm2d(240, eps=0.001, momentum=0.010000000000000009, affine=True, track_running_stats=True)\n        (_depthwise_conv): Conv2dSamePadding(240, 240, kernel_size=(5, 5), stride=[2, 2], groups=240, bias=False)\n        (_bn1): BatchNorm2d(240, eps=0.001, momentum=0.010000000000000009, affine=True, track_running_stats=True)\n        (_se_reduce): Conv2dSamePadding(240, 10, kernel_size=(1, 1), stride=(1, 1))\n        (_se_expand): Conv2dSamePadding(10, 240, kernel_size=(1, 1), stride=(1, 1))\n        (_project_conv): Conv2dSamePadding(240, 64, kernel_size=(1, 1), stride=(1, 1), bias=False)\n        (_bn2): BatchNorm2d(64, eps=0.001, momentum=0.010000000000000009, affine=True, track_running_stats=True)\n      )\n      (9): MBConvBlock(\n        (swish): Swish()\n        (_expand_conv): Conv2dSamePadding(64, 384, kernel_size=(1, 1), stride=(1, 1), bias=False)\n        (_bn0): BatchNorm2d(384, eps=0.001, momentum=0.010000000000000009, affine=True, track_running_stats=True)\n        (_depthwise_conv): Conv2dSamePadding(384, 384, kernel_size=(5, 5), stride=(1, 1), groups=384, bias=False)\n        (_bn1): BatchNorm2d(384, eps=0.001, momentum=0.010000000000000009, affine=True, track_running_stats=True)\n        (_se_reduce): Conv2dSamePadding(384, 16, kernel_size=(1, 1), stride=(1, 1))\n        (_se_expand): Conv2dSamePadding(16, 384, kernel_size=(1, 1), stride=(1, 1))\n        (_project_conv): Conv2dSamePadding(384, 64, kernel_size=(1, 1), stride=(1, 1), bias=False)\n        (_bn2): BatchNorm2d(64, eps=0.001, momentum=0.010000000000000009, affine=True, track_running_stats=True)\n      )\n      (10): MBConvBlock(\n        (swish): Swish()\n        (_expand_conv): Conv2dSamePadding(64, 384, kernel_size=(1, 1), stride=(1, 1), bias=False)\n        (_bn0): BatchNorm2d(384, eps=0.001, momentum=0.010000000000000009, affine=True, track_running_stats=True)\n        (_depthwise_conv): Conv2dSamePadding(384, 384, kernel_size=(5, 5), stride=(1, 1), groups=384, bias=False)\n        (_bn1): BatchNorm2d(384, eps=0.001, momentum=0.010000000000000009, affine=True, track_running_stats=True)\n        (_se_reduce): Conv2dSamePadding(384, 16, kernel_size=(1, 1), stride=(1, 1))\n        (_se_expand): Conv2dSamePadding(16, 384, kernel_size=(1, 1), stride=(1, 1))\n        (_project_conv): Conv2dSamePadding(384, 64, kernel_size=(1, 1), stride=(1, 1), bias=False)\n        (_bn2): BatchNorm2d(64, eps=0.001, momentum=0.010000000000000009, affine=True, track_running_stats=True)\n      )\n      (11): MBConvBlock(\n        (swish): Swish()\n        (_expand_conv): Conv2dSamePadding(64, 384, kernel_size=(1, 1), stride=(1, 1), bias=False)\n        (_bn0): BatchNorm2d(384, eps=0.001, momentum=0.010000000000000009, affine=True, track_running_stats=True)\n        (_depthwise_conv): Conv2dSamePadding(384, 384, kernel_size=(5, 5), stride=(1, 1), groups=384, bias=False)\n        (_bn1): BatchNorm2d(384, eps=0.001, momentum=0.010000000000000009, affine=True, track_running_stats=True)\n        (_se_reduce): Conv2dSamePadding(384, 16, kernel_size=(1, 1), stride=(1, 1))\n        (_se_expand): Conv2dSamePadding(16, 384, kernel_size=(1, 1), stride=(1, 1))\n        (_project_conv): Conv2dSamePadding(384, 64, kernel_size=(1, 1), stride=(1, 1), bias=False)\n        (_bn2): BatchNorm2d(64, eps=0.001, momentum=0.010000000000000009, affine=True, track_running_stats=True)\n      )\n      (12): MBConvBlock(\n        (swish): Swish()\n        (_expand_conv): Conv2dSamePadding(64, 384, kernel_size=(1, 1), stride=(1, 1), bias=False)\n        (_bn0): BatchNorm2d(384, eps=0.001, momentum=0.010000000000000009, affine=True, track_running_stats=True)\n        (_depthwise_conv): Conv2dSamePadding(384, 384, kernel_size=(5, 5), stride=(1, 1), groups=384, bias=False)\n        (_bn1): BatchNorm2d(384, eps=0.001, momentum=0.010000000000000009, affine=True, track_running_stats=True)\n        (_se_reduce): Conv2dSamePadding(384, 16, kernel_size=(1, 1), stride=(1, 1))\n        (_se_expand): Conv2dSamePadding(16, 384, kernel_size=(1, 1), stride=(1, 1))\n        (_project_conv): Conv2dSamePadding(384, 64, kernel_size=(1, 1), stride=(1, 1), bias=False)\n        (_bn2): BatchNorm2d(64, eps=0.001, momentum=0.010000000000000009, affine=True, track_running_stats=True)\n      )\n      (13): MBConvBlock(\n        (swish): Swish()\n        (_expand_conv): Conv2dSamePadding(64, 384, kernel_size=(1, 1), stride=(1, 1), bias=False)\n        (_bn0): BatchNorm2d(384, eps=0.001, momentum=0.010000000000000009, affine=True, track_running_stats=True)\n        (_depthwise_conv): Conv2dSamePadding(384, 384, kernel_size=(3, 3), stride=[2, 2], groups=384, bias=False)\n        (_bn1): BatchNorm2d(384, eps=0.001, momentum=0.010000000000000009, affine=True, track_running_stats=True)\n        (_se_reduce): Conv2dSamePadding(384, 16, kernel_size=(1, 1), stride=(1, 1))\n        (_se_expand): Conv2dSamePadding(16, 384, kernel_size=(1, 1), stride=(1, 1))\n        (_project_conv): Conv2dSamePadding(384, 128, kernel_size=(1, 1), stride=(1, 1), bias=False)\n        (_bn2): BatchNorm2d(128, eps=0.001, momentum=0.010000000000000009, affine=True, track_running_stats=True)\n      )\n      (14): MBConvBlock(\n        (swish): Swish()\n        (_expand_conv): Conv2dSamePadding(128, 768, kernel_size=(1, 1), stride=(1, 1), bias=False)\n        (_bn0): BatchNorm2d(768, eps=0.001, momentum=0.010000000000000009, affine=True, track_running_stats=True)\n        (_depthwise_conv): Conv2dSamePadding(768, 768, kernel_size=(3, 3), stride=(1, 1), groups=768, bias=False)\n        (_bn1): BatchNorm2d(768, eps=0.001, momentum=0.010000000000000009, affine=True, track_running_stats=True)\n        (_se_reduce): Conv2dSamePadding(768, 32, kernel_size=(1, 1), stride=(1, 1))\n        (_se_expand): Conv2dSamePadding(32, 768, kernel_size=(1, 1), stride=(1, 1))\n        (_project_conv): Conv2dSamePadding(768, 128, kernel_size=(1, 1), stride=(1, 1), bias=False)\n        (_bn2): BatchNorm2d(128, eps=0.001, momentum=0.010000000000000009, affine=True, track_running_stats=True)\n      )\n      (15): MBConvBlock(\n        (swish): Swish()\n        (_expand_conv): Conv2dSamePadding(128, 768, kernel_size=(1, 1), stride=(1, 1), bias=False)\n        (_bn0): BatchNorm2d(768, eps=0.001, momentum=0.010000000000000009, affine=True, track_running_stats=True)\n        (_depthwise_conv): Conv2dSamePadding(768, 768, kernel_size=(3, 3), stride=(1, 1), groups=768, bias=False)\n        (_bn1): BatchNorm2d(768, eps=0.001, momentum=0.010000000000000009, affine=True, track_running_stats=True)\n        (_se_reduce): Conv2dSamePadding(768, 32, kernel_size=(1, 1), stride=(1, 1))\n        (_se_expand): Conv2dSamePadding(32, 768, kernel_size=(1, 1), stride=(1, 1))\n        (_project_conv): Conv2dSamePadding(768, 128, kernel_size=(1, 1), stride=(1, 1), bias=False)\n        (_bn2): BatchNorm2d(128, eps=0.001, momentum=0.010000000000000009, affine=True, track_running_stats=True)\n      )\n      (16): MBConvBlock(\n        (swish): Swish()\n        (_expand_conv): Conv2dSamePadding(128, 768, kernel_size=(1, 1), stride=(1, 1), bias=False)\n        (_bn0): BatchNorm2d(768, eps=0.001, momentum=0.010000000000000009, affine=True, track_running_stats=True)\n        (_depthwise_conv): Conv2dSamePadding(768, 768, kernel_size=(3, 3), stride=(1, 1), groups=768, bias=False)\n        (_bn1): BatchNorm2d(768, eps=0.001, momentum=0.010000000000000009, affine=True, track_running_stats=True)\n        (_se_reduce): Conv2dSamePadding(768, 32, kernel_size=(1, 1), stride=(1, 1))\n        (_se_expand): Conv2dSamePadding(32, 768, kernel_size=(1, 1), stride=(1, 1))\n        (_project_conv): Conv2dSamePadding(768, 128, kernel_size=(1, 1), stride=(1, 1), bias=False)\n        (_bn2): BatchNorm2d(128, eps=0.001, momentum=0.010000000000000009, affine=True, track_running_stats=True)\n      )\n      (17): MBConvBlock(\n        (swish): Swish()\n        (_expand_conv): Conv2dSamePadding(128, 768, kernel_size=(1, 1), stride=(1, 1), bias=False)\n        (_bn0): BatchNorm2d(768, eps=0.001, momentum=0.010000000000000009, affine=True, track_running_stats=True)\n        (_depthwise_conv): Conv2dSamePadding(768, 768, kernel_size=(3, 3), stride=(1, 1), groups=768, bias=False)\n        (_bn1): BatchNorm2d(768, eps=0.001, momentum=0.010000000000000009, affine=True, track_running_stats=True)\n        (_se_reduce): Conv2dSamePadding(768, 32, kernel_size=(1, 1), stride=(1, 1))\n        (_se_expand): Conv2dSamePadding(32, 768, kernel_size=(1, 1), stride=(1, 1))\n        (_project_conv): Conv2dSamePadding(768, 128, kernel_size=(1, 1), stride=(1, 1), bias=False)\n        (_bn2): BatchNorm2d(128, eps=0.001, momentum=0.010000000000000009, affine=True, track_running_stats=True)\n      )\n      (18): MBConvBlock(\n        (swish): Swish()\n        (_expand_conv): Conv2dSamePadding(128, 768, kernel_size=(1, 1), stride=(1, 1), bias=False)\n        (_bn0): BatchNorm2d(768, eps=0.001, momentum=0.010000000000000009, affine=True, track_running_stats=True)\n        (_depthwise_conv): Conv2dSamePadding(768, 768, kernel_size=(3, 3), stride=(1, 1), groups=768, bias=False)\n        (_bn1): BatchNorm2d(768, eps=0.001, momentum=0.010000000000000009, affine=True, track_running_stats=True)\n        (_se_reduce): Conv2dSamePadding(768, 32, kernel_size=(1, 1), stride=(1, 1))\n        (_se_expand): Conv2dSamePadding(32, 768, kernel_size=(1, 1), stride=(1, 1))\n        (_project_conv): Conv2dSamePadding(768, 128, kernel_size=(1, 1), stride=(1, 1), bias=False)\n        (_bn2): BatchNorm2d(128, eps=0.001, momentum=0.010000000000000009, affine=True, track_running_stats=True)\n      )\n      (19): MBConvBlock(\n        (swish): Swish()\n        (_expand_conv): Conv2dSamePadding(128, 768, kernel_size=(1, 1), stride=(1, 1), bias=False)\n        (_bn0): BatchNorm2d(768, eps=0.001, momentum=0.010000000000000009, affine=True, track_running_stats=True)\n        (_depthwise_conv): Conv2dSamePadding(768, 768, kernel_size=(3, 3), stride=(1, 1), groups=768, bias=False)\n        (_bn1): BatchNorm2d(768, eps=0.001, momentum=0.010000000000000009, affine=True, track_running_stats=True)\n        (_se_reduce): Conv2dSamePadding(768, 32, kernel_size=(1, 1), stride=(1, 1))\n        (_se_expand): Conv2dSamePadding(32, 768, kernel_size=(1, 1), stride=(1, 1))\n        (_project_conv): Conv2dSamePadding(768, 128, kernel_size=(1, 1), stride=(1, 1), bias=False)\n        (_bn2): BatchNorm2d(128, eps=0.001, momentum=0.010000000000000009, affine=True, track_running_stats=True)\n      )\n      (20): MBConvBlock(\n        (swish): Swish()\n        (_expand_conv): Conv2dSamePadding(128, 768, kernel_size=(1, 1), stride=(1, 1), bias=False)\n        (_bn0): BatchNorm2d(768, eps=0.001, momentum=0.010000000000000009, affine=True, track_running_stats=True)\n        (_depthwise_conv): Conv2dSamePadding(768, 768, kernel_size=(5, 5), stride=[1, 1], groups=768, bias=False)\n        (_bn1): BatchNorm2d(768, eps=0.001, momentum=0.010000000000000009, affine=True, track_running_stats=True)\n        (_se_reduce): Conv2dSamePadding(768, 32, kernel_size=(1, 1), stride=(1, 1))\n        (_se_expand): Conv2dSamePadding(32, 768, kernel_size=(1, 1), stride=(1, 1))\n        (_project_conv): Conv2dSamePadding(768, 176, kernel_size=(1, 1), stride=(1, 1), bias=False)\n        (_bn2): BatchNorm2d(176, eps=0.001, momentum=0.010000000000000009, affine=True, track_running_stats=True)\n      )\n      (21): MBConvBlock(\n        (swish): Swish()\n        (_expand_conv): Conv2dSamePadding(176, 1056, kernel_size=(1, 1), stride=(1, 1), bias=False)\n        (_bn0): BatchNorm2d(1056, eps=0.001, momentum=0.010000000000000009, affine=True, track_running_stats=True)\n        (_depthwise_conv): Conv2dSamePadding(1056, 1056, kernel_size=(5, 5), stride=(1, 1), groups=1056, bias=False)\n        (_bn1): BatchNorm2d(1056, eps=0.001, momentum=0.010000000000000009, affine=True, track_running_stats=True)\n        (_se_reduce): Conv2dSamePadding(1056, 44, kernel_size=(1, 1), stride=(1, 1))\n        (_se_expand): Conv2dSamePadding(44, 1056, kernel_size=(1, 1), stride=(1, 1))\n        (_project_conv): Conv2dSamePadding(1056, 176, kernel_size=(1, 1), stride=(1, 1), bias=False)\n        (_bn2): BatchNorm2d(176, eps=0.001, momentum=0.010000000000000009, affine=True, track_running_stats=True)\n      )\n      (22): MBConvBlock(\n        (swish): Swish()\n        (_expand_conv): Conv2dSamePadding(176, 1056, kernel_size=(1, 1), stride=(1, 1), bias=False)\n        (_bn0): BatchNorm2d(1056, eps=0.001, momentum=0.010000000000000009, affine=True, track_running_stats=True)\n        (_depthwise_conv): Conv2dSamePadding(1056, 1056, kernel_size=(5, 5), stride=(1, 1), groups=1056, bias=False)\n        (_bn1): BatchNorm2d(1056, eps=0.001, momentum=0.010000000000000009, affine=True, track_running_stats=True)\n        (_se_reduce): Conv2dSamePadding(1056, 44, kernel_size=(1, 1), stride=(1, 1))\n        (_se_expand): Conv2dSamePadding(44, 1056, kernel_size=(1, 1), stride=(1, 1))\n        (_project_conv): Conv2dSamePadding(1056, 176, kernel_size=(1, 1), stride=(1, 1), bias=False)\n        (_bn2): BatchNorm2d(176, eps=0.001, momentum=0.010000000000000009, affine=True, track_running_stats=True)\n      )\n      (23): MBConvBlock(\n        (swish): Swish()\n        (_expand_conv): Conv2dSamePadding(176, 1056, kernel_size=(1, 1), stride=(1, 1), bias=False)\n        (_bn0): BatchNorm2d(1056, eps=0.001, momentum=0.010000000000000009, affine=True, track_running_stats=True)\n        (_depthwise_conv): Conv2dSamePadding(1056, 1056, kernel_size=(5, 5), stride=(1, 1), groups=1056, bias=False)\n        (_bn1): BatchNorm2d(1056, eps=0.001, momentum=0.010000000000000009, affine=True, track_running_stats=True)\n        (_se_reduce): Conv2dSamePadding(1056, 44, kernel_size=(1, 1), stride=(1, 1))\n        (_se_expand): Conv2dSamePadding(44, 1056, kernel_size=(1, 1), stride=(1, 1))\n        (_project_conv): Conv2dSamePadding(1056, 176, kernel_size=(1, 1), stride=(1, 1), bias=False)\n        (_bn2): BatchNorm2d(176, eps=0.001, momentum=0.010000000000000009, affine=True, track_running_stats=True)\n      )\n      (24): MBConvBlock(\n        (swish): Swish()\n        (_expand_conv): Conv2dSamePadding(176, 1056, kernel_size=(1, 1), stride=(1, 1), bias=False)\n        (_bn0): BatchNorm2d(1056, eps=0.001, momentum=0.010000000000000009, affine=True, track_running_stats=True)\n        (_depthwise_conv): Conv2dSamePadding(1056, 1056, kernel_size=(5, 5), stride=(1, 1), groups=1056, bias=False)\n        (_bn1): BatchNorm2d(1056, eps=0.001, momentum=0.010000000000000009, affine=True, track_running_stats=True)\n        (_se_reduce): Conv2dSamePadding(1056, 44, kernel_size=(1, 1), stride=(1, 1))\n        (_se_expand): Conv2dSamePadding(44, 1056, kernel_size=(1, 1), stride=(1, 1))\n        (_project_conv): Conv2dSamePadding(1056, 176, kernel_size=(1, 1), stride=(1, 1), bias=False)\n        (_bn2): BatchNorm2d(176, eps=0.001, momentum=0.010000000000000009, affine=True, track_running_stats=True)\n      )\n      (25): MBConvBlock(\n        (swish): Swish()\n        (_expand_conv): Conv2dSamePadding(176, 1056, kernel_size=(1, 1), stride=(1, 1), bias=False)\n        (_bn0): BatchNorm2d(1056, eps=0.001, momentum=0.010000000000000009, affine=True, track_running_stats=True)\n        (_depthwise_conv): Conv2dSamePadding(1056, 1056, kernel_size=(5, 5), stride=(1, 1), groups=1056, bias=False)\n        (_bn1): BatchNorm2d(1056, eps=0.001, momentum=0.010000000000000009, affine=True, track_running_stats=True)\n        (_se_reduce): Conv2dSamePadding(1056, 44, kernel_size=(1, 1), stride=(1, 1))\n        (_se_expand): Conv2dSamePadding(44, 1056, kernel_size=(1, 1), stride=(1, 1))\n        (_project_conv): Conv2dSamePadding(1056, 176, kernel_size=(1, 1), stride=(1, 1), bias=False)\n        (_bn2): BatchNorm2d(176, eps=0.001, momentum=0.010000000000000009, affine=True, track_running_stats=True)\n      )\n      (26): MBConvBlock(\n        (swish): Swish()\n        (_expand_conv): Conv2dSamePadding(176, 1056, kernel_size=(1, 1), stride=(1, 1), bias=False)\n        (_bn0): BatchNorm2d(1056, eps=0.001, momentum=0.010000000000000009, affine=True, track_running_stats=True)\n        (_depthwise_conv): Conv2dSamePadding(1056, 1056, kernel_size=(5, 5), stride=(1, 1), groups=1056, bias=False)\n        (_bn1): BatchNorm2d(1056, eps=0.001, momentum=0.010000000000000009, affine=True, track_running_stats=True)\n        (_se_reduce): Conv2dSamePadding(1056, 44, kernel_size=(1, 1), stride=(1, 1))\n        (_se_expand): Conv2dSamePadding(44, 1056, kernel_size=(1, 1), stride=(1, 1))\n        (_project_conv): Conv2dSamePadding(1056, 176, kernel_size=(1, 1), stride=(1, 1), bias=False)\n        (_bn2): BatchNorm2d(176, eps=0.001, momentum=0.010000000000000009, affine=True, track_running_stats=True)\n      )\n      (27): MBConvBlock(\n        (swish): Swish()\n        (_expand_conv): Conv2dSamePadding(176, 1056, kernel_size=(1, 1), stride=(1, 1), bias=False)\n        (_bn0): BatchNorm2d(1056, eps=0.001, momentum=0.010000000000000009, affine=True, track_running_stats=True)\n        (_depthwise_conv): Conv2dSamePadding(1056, 1056, kernel_size=(5, 5), stride=[2, 2], groups=1056, bias=False)\n        (_bn1): BatchNorm2d(1056, eps=0.001, momentum=0.010000000000000009, affine=True, track_running_stats=True)\n        (_se_reduce): Conv2dSamePadding(1056, 44, kernel_size=(1, 1), stride=(1, 1))\n        (_se_expand): Conv2dSamePadding(44, 1056, kernel_size=(1, 1), stride=(1, 1))\n        (_project_conv): Conv2dSamePadding(1056, 304, kernel_size=(1, 1), stride=(1, 1), bias=False)\n        (_bn2): BatchNorm2d(304, eps=0.001, momentum=0.010000000000000009, affine=True, track_running_stats=True)\n      )\n      (28): MBConvBlock(\n        (swish): Swish()\n        (_expand_conv): Conv2dSamePadding(304, 1824, kernel_size=(1, 1), stride=(1, 1), bias=False)\n        (_bn0): BatchNorm2d(1824, eps=0.001, momentum=0.010000000000000009, affine=True, track_running_stats=True)\n        (_depthwise_conv): Conv2dSamePadding(1824, 1824, kernel_size=(5, 5), stride=(1, 1), groups=1824, bias=False)\n        (_bn1): BatchNorm2d(1824, eps=0.001, momentum=0.010000000000000009, affine=True, track_running_stats=True)\n        (_se_reduce): Conv2dSamePadding(1824, 76, kernel_size=(1, 1), stride=(1, 1))\n        (_se_expand): Conv2dSamePadding(76, 1824, kernel_size=(1, 1), stride=(1, 1))\n        (_project_conv): Conv2dSamePadding(1824, 304, kernel_size=(1, 1), stride=(1, 1), bias=False)\n        (_bn2): BatchNorm2d(304, eps=0.001, momentum=0.010000000000000009, affine=True, track_running_stats=True)\n      )\n      (29): MBConvBlock(\n        (swish): Swish()\n        (_expand_conv): Conv2dSamePadding(304, 1824, kernel_size=(1, 1), stride=(1, 1), bias=False)\n        (_bn0): BatchNorm2d(1824, eps=0.001, momentum=0.010000000000000009, affine=True, track_running_stats=True)\n        (_depthwise_conv): Conv2dSamePadding(1824, 1824, kernel_size=(5, 5), stride=(1, 1), groups=1824, bias=False)\n        (_bn1): BatchNorm2d(1824, eps=0.001, momentum=0.010000000000000009, affine=True, track_running_stats=True)\n        (_se_reduce): Conv2dSamePadding(1824, 76, kernel_size=(1, 1), stride=(1, 1))\n        (_se_expand): Conv2dSamePadding(76, 1824, kernel_size=(1, 1), stride=(1, 1))\n        (_project_conv): Conv2dSamePadding(1824, 304, kernel_size=(1, 1), stride=(1, 1), bias=False)\n        (_bn2): BatchNorm2d(304, eps=0.001, momentum=0.010000000000000009, affine=True, track_running_stats=True)\n      )\n      (30): MBConvBlock(\n        (swish): Swish()\n        (_expand_conv): Conv2dSamePadding(304, 1824, kernel_size=(1, 1), stride=(1, 1), bias=False)\n        (_bn0): BatchNorm2d(1824, eps=0.001, momentum=0.010000000000000009, affine=True, track_running_stats=True)\n        (_depthwise_conv): Conv2dSamePadding(1824, 1824, kernel_size=(5, 5), stride=(1, 1), groups=1824, bias=False)\n        (_bn1): BatchNorm2d(1824, eps=0.001, momentum=0.010000000000000009, affine=True, track_running_stats=True)\n        (_se_reduce): Conv2dSamePadding(1824, 76, kernel_size=(1, 1), stride=(1, 1))\n        (_se_expand): Conv2dSamePadding(76, 1824, kernel_size=(1, 1), stride=(1, 1))\n        (_project_conv): Conv2dSamePadding(1824, 304, kernel_size=(1, 1), stride=(1, 1), bias=False)\n        (_bn2): BatchNorm2d(304, eps=0.001, momentum=0.010000000000000009, affine=True, track_running_stats=True)\n      )\n      (31): MBConvBlock(\n        (swish): Swish()\n        (_expand_conv): Conv2dSamePadding(304, 1824, kernel_size=(1, 1), stride=(1, 1), bias=False)\n        (_bn0): BatchNorm2d(1824, eps=0.001, momentum=0.010000000000000009, affine=True, track_running_stats=True)\n        (_depthwise_conv): Conv2dSamePadding(1824, 1824, kernel_size=(5, 5), stride=(1, 1), groups=1824, bias=False)\n        (_bn1): BatchNorm2d(1824, eps=0.001, momentum=0.010000000000000009, affine=True, track_running_stats=True)\n        (_se_reduce): Conv2dSamePadding(1824, 76, kernel_size=(1, 1), stride=(1, 1))\n        (_se_expand): Conv2dSamePadding(76, 1824, kernel_size=(1, 1), stride=(1, 1))\n        (_project_conv): Conv2dSamePadding(1824, 304, kernel_size=(1, 1), stride=(1, 1), bias=False)\n        (_bn2): BatchNorm2d(304, eps=0.001, momentum=0.010000000000000009, affine=True, track_running_stats=True)\n      )\n      (32): MBConvBlock(\n        (swish): Swish()\n        (_expand_conv): Conv2dSamePadding(304, 1824, kernel_size=(1, 1), stride=(1, 1), bias=False)\n        (_bn0): BatchNorm2d(1824, eps=0.001, momentum=0.010000000000000009, affine=True, track_running_stats=True)\n        (_depthwise_conv): Conv2dSamePadding(1824, 1824, kernel_size=(5, 5), stride=(1, 1), groups=1824, bias=False)\n        (_bn1): BatchNorm2d(1824, eps=0.001, momentum=0.010000000000000009, affine=True, track_running_stats=True)\n        (_se_reduce): Conv2dSamePadding(1824, 76, kernel_size=(1, 1), stride=(1, 1))\n        (_se_expand): Conv2dSamePadding(76, 1824, kernel_size=(1, 1), stride=(1, 1))\n        (_project_conv): Conv2dSamePadding(1824, 304, kernel_size=(1, 1), stride=(1, 1), bias=False)\n        (_bn2): BatchNorm2d(304, eps=0.001, momentum=0.010000000000000009, affine=True, track_running_stats=True)\n      )\n      (33): MBConvBlock(\n        (swish): Swish()\n        (_expand_conv): Conv2dSamePadding(304, 1824, kernel_size=(1, 1), stride=(1, 1), bias=False)\n        (_bn0): BatchNorm2d(1824, eps=0.001, momentum=0.010000000000000009, affine=True, track_running_stats=True)\n        (_depthwise_conv): Conv2dSamePadding(1824, 1824, kernel_size=(5, 5), stride=(1, 1), groups=1824, bias=False)\n        (_bn1): BatchNorm2d(1824, eps=0.001, momentum=0.010000000000000009, affine=True, track_running_stats=True)\n        (_se_reduce): Conv2dSamePadding(1824, 76, kernel_size=(1, 1), stride=(1, 1))\n        (_se_expand): Conv2dSamePadding(76, 1824, kernel_size=(1, 1), stride=(1, 1))\n        (_project_conv): Conv2dSamePadding(1824, 304, kernel_size=(1, 1), stride=(1, 1), bias=False)\n        (_bn2): BatchNorm2d(304, eps=0.001, momentum=0.010000000000000009, affine=True, track_running_stats=True)\n      )\n      (34): MBConvBlock(\n        (swish): Swish()\n        (_expand_conv): Conv2dSamePadding(304, 1824, kernel_size=(1, 1), stride=(1, 1), bias=False)\n        (_bn0): BatchNorm2d(1824, eps=0.001, momentum=0.010000000000000009, affine=True, track_running_stats=True)\n        (_depthwise_conv): Conv2dSamePadding(1824, 1824, kernel_size=(5, 5), stride=(1, 1), groups=1824, bias=False)\n        (_bn1): BatchNorm2d(1824, eps=0.001, momentum=0.010000000000000009, affine=True, track_running_stats=True)\n        (_se_reduce): Conv2dSamePadding(1824, 76, kernel_size=(1, 1), stride=(1, 1))\n        (_se_expand): Conv2dSamePadding(76, 1824, kernel_size=(1, 1), stride=(1, 1))\n        (_project_conv): Conv2dSamePadding(1824, 304, kernel_size=(1, 1), stride=(1, 1), bias=False)\n        (_bn2): BatchNorm2d(304, eps=0.001, momentum=0.010000000000000009, affine=True, track_running_stats=True)\n      )\n      (35): MBConvBlock(\n        (swish): Swish()\n        (_expand_conv): Conv2dSamePadding(304, 1824, kernel_size=(1, 1), stride=(1, 1), bias=False)\n        (_bn0): BatchNorm2d(1824, eps=0.001, momentum=0.010000000000000009, affine=True, track_running_stats=True)\n        (_depthwise_conv): Conv2dSamePadding(1824, 1824, kernel_size=(5, 5), stride=(1, 1), groups=1824, bias=False)\n        (_bn1): BatchNorm2d(1824, eps=0.001, momentum=0.010000000000000009, affine=True, track_running_stats=True)\n        (_se_reduce): Conv2dSamePadding(1824, 76, kernel_size=(1, 1), stride=(1, 1))\n        (_se_expand): Conv2dSamePadding(76, 1824, kernel_size=(1, 1), stride=(1, 1))\n        (_project_conv): Conv2dSamePadding(1824, 304, kernel_size=(1, 1), stride=(1, 1), bias=False)\n        (_bn2): BatchNorm2d(304, eps=0.001, momentum=0.010000000000000009, affine=True, track_running_stats=True)\n      )\n      (36): MBConvBlock(\n        (swish): Swish()\n        (_expand_conv): Conv2dSamePadding(304, 1824, kernel_size=(1, 1), stride=(1, 1), bias=False)\n        (_bn0): BatchNorm2d(1824, eps=0.001, momentum=0.010000000000000009, affine=True, track_running_stats=True)\n        (_depthwise_conv): Conv2dSamePadding(1824, 1824, kernel_size=(3, 3), stride=[1, 1], groups=1824, bias=False)\n        (_bn1): BatchNorm2d(1824, eps=0.001, momentum=0.010000000000000009, affine=True, track_running_stats=True)\n        (_se_reduce): Conv2dSamePadding(1824, 76, kernel_size=(1, 1), stride=(1, 1))\n        (_se_expand): Conv2dSamePadding(76, 1824, kernel_size=(1, 1), stride=(1, 1))\n        (_project_conv): Conv2dSamePadding(1824, 512, kernel_size=(1, 1), stride=(1, 1), bias=False)\n        (_bn2): BatchNorm2d(512, eps=0.001, momentum=0.010000000000000009, affine=True, track_running_stats=True)\n      )\n      (37): MBConvBlock(\n        (swish): Swish()\n        (_expand_conv): Conv2dSamePadding(512, 3072, kernel_size=(1, 1), stride=(1, 1), bias=False)\n        (_bn0): BatchNorm2d(3072, eps=0.001, momentum=0.010000000000000009, affine=True, track_running_stats=True)\n        (_depthwise_conv): Conv2dSamePadding(3072, 3072, kernel_size=(3, 3), stride=(1, 1), groups=3072, bias=False)\n        (_bn1): BatchNorm2d(3072, eps=0.001, momentum=0.010000000000000009, affine=True, track_running_stats=True)\n        (_se_reduce): Conv2dSamePadding(3072, 128, kernel_size=(1, 1), stride=(1, 1))\n        (_se_expand): Conv2dSamePadding(128, 3072, kernel_size=(1, 1), stride=(1, 1))\n        (_project_conv): Conv2dSamePadding(3072, 512, kernel_size=(1, 1), stride=(1, 1), bias=False)\n        (_bn2): BatchNorm2d(512, eps=0.001, momentum=0.010000000000000009, affine=True, track_running_stats=True)\n      )\n      (38): MBConvBlock(\n        (swish): Swish()\n        (_expand_conv): Conv2dSamePadding(512, 3072, kernel_size=(1, 1), stride=(1, 1), bias=False)\n        (_bn0): BatchNorm2d(3072, eps=0.001, momentum=0.010000000000000009, affine=True, track_running_stats=True)\n        (_depthwise_conv): Conv2dSamePadding(3072, 3072, kernel_size=(3, 3), stride=(1, 1), groups=3072, bias=False)\n        (_bn1): BatchNorm2d(3072, eps=0.001, momentum=0.010000000000000009, affine=True, track_running_stats=True)\n        (_se_reduce): Conv2dSamePadding(3072, 128, kernel_size=(1, 1), stride=(1, 1))\n        (_se_expand): Conv2dSamePadding(128, 3072, kernel_size=(1, 1), stride=(1, 1))\n        (_project_conv): Conv2dSamePadding(3072, 512, kernel_size=(1, 1), stride=(1, 1), bias=False)\n        (_bn2): BatchNorm2d(512, eps=0.001, momentum=0.010000000000000009, affine=True, track_running_stats=True)\n      )\n    )\n    (head_conv): Conv2dSamePadding(512, 2048, kernel_size=(1, 1), stride=(1, 1), bias=False)\n    (head_batch_norm): BatchNorm2d(2048, eps=0.001, momentum=0.010000000000000009, affine=True, track_running_stats=True)\n    (head_swish): Swish()\n  )\n  (up_conv1): ConvTranspose2d(2048, 512, kernel_size=(2, 2), stride=(2, 2))\n  (double_conv1): Sequential(\n    (0): Conv2d(640, 512, kernel_size=(3, 3), stride=(1, 1), padding=(1, 1))\n    (1): BatchNorm2d(512, eps=1e-05, momentum=0.1, affine=True, track_running_stats=True)\n    (2): ReLU(inplace=True)\n    (3): Conv2d(512, 512, kernel_size=(3, 3), stride=(1, 1), padding=(1, 1))\n    (4): BatchNorm2d(512, eps=1e-05, momentum=0.1, affine=True, track_running_stats=True)\n    (5): ReLU(inplace=True)\n  )\n  (up_conv2): ConvTranspose2d(512, 256, kernel_size=(2, 2), stride=(2, 2))\n  (double_conv2): Sequential(\n    (0): Conv2d(320, 256, kernel_size=(3, 3), stride=(1, 1), padding=(1, 1))\n    (1): BatchNorm2d(256, eps=1e-05, momentum=0.1, affine=True, track_running_stats=True)\n    (2): ReLU(inplace=True)\n    (3): Conv2d(256, 256, kernel_size=(3, 3), stride=(1, 1), padding=(1, 1))\n    (4): BatchNorm2d(256, eps=1e-05, momentum=0.1, affine=True, track_running_stats=True)\n    (5): ReLU(inplace=True)\n  )\n  (up_conv3): ConvTranspose2d(256, 128, kernel_size=(2, 2), stride=(2, 2))\n  (double_conv3): Sequential(\n    (0): Conv2d(168, 128, kernel_size=(3, 3), stride=(1, 1), padding=(1, 1))\n    (1): BatchNorm2d(128, eps=1e-05, momentum=0.1, affine=True, track_running_stats=True)\n    (2): ReLU(inplace=True)\n    (3): Conv2d(128, 128, kernel_size=(3, 3), stride=(1, 1), padding=(1, 1))\n    (4): BatchNorm2d(128, eps=1e-05, momentum=0.1, affine=True, track_running_stats=True)\n    (5): ReLU(inplace=True)\n  )\n  (up_conv4): ConvTranspose2d(128, 64, kernel_size=(2, 2), stride=(2, 2))\n  (double_conv4): Sequential(\n    (0): Conv2d(88, 64, kernel_size=(3, 3), stride=(1, 1), padding=(1, 1))\n    (1): BatchNorm2d(64, eps=1e-05, momentum=0.1, affine=True, track_running_stats=True)\n    (2): ReLU(inplace=True)\n    (3): Conv2d(64, 64, kernel_size=(3, 3), stride=(1, 1), padding=(1, 1))\n    (4): BatchNorm2d(64, eps=1e-05, momentum=0.1, affine=True, track_running_stats=True)\n    (5): ReLU(inplace=True)\n  )\n  (up_conv_input): ConvTranspose2d(64, 32, kernel_size=(2, 2), stride=(2, 2))\n  (double_conv_input): Sequential(\n    (0): Conv2d(35, 32, kernel_size=(3, 3), stride=(1, 1), padding=(1, 1))\n    (1): BatchNorm2d(32, eps=1e-05, momentum=0.1, affine=True, track_running_stats=True)\n    (2): ReLU(inplace=True)\n    (3): Conv2d(32, 32, kernel_size=(3, 3), stride=(1, 1), padding=(1, 1))\n    (4): BatchNorm2d(32, eps=1e-05, momentum=0.1, affine=True, track_running_stats=True)\n    (5): ReLU(inplace=True)\n  )\n  (final_conv): Conv2d(32, 12, kernel_size=(1, 1), stride=(1, 1))\n)", "parameters": [["encoder.stem_conv.weight", [48, 3, 3, 3]], ["encoder.stem_batch_norm.weight", [48]], ["encoder.stem_batch_norm.bias", [48]], ["encoder.blocks.0._depthwise_conv.weight", [48, 1, 3, 3]], ["encoder.blocks.0._bn1.weight", [48]], ["encoder.blocks.0._bn1.bias", [48]], ["encoder.blocks.0._se_reduce.weight", [12, 48, 1, 1]], ["encoder.blocks
…
